Train Dataset length: 5994
Test Dataset length: 5794
Dataset  Classes: 200
Model Summary:
----------------------------------------------------------------
        Layer (type)               Output Shape         Param #
================================================================
            Conv2d-1         [-1, 64, 112, 112]           9,408
       BatchNorm2d-2         [-1, 64, 112, 112]             128
       BasicConv2d-3         [-1, 64, 112, 112]               0
         MaxPool2d-4           [-1, 64, 56, 56]               0
            Conv2d-5           [-1, 64, 56, 56]           4,096
       BatchNorm2d-6           [-1, 64, 56, 56]             128
       BasicConv2d-7           [-1, 64, 56, 56]               0
            Conv2d-8          [-1, 192, 56, 56]         110,592
       BatchNorm2d-9          [-1, 192, 56, 56]             384
      BasicConv2d-10          [-1, 192, 56, 56]               0
        MaxPool2d-11          [-1, 192, 28, 28]               0
           Conv2d-12           [-1, 64, 28, 28]          12,288
      BatchNorm2d-13           [-1, 64, 28, 28]             128
      BasicConv2d-14           [-1, 64, 28, 28]               0
           Conv2d-15           [-1, 96, 28, 28]          18,432
      BatchNorm2d-16           [-1, 96, 28, 28]             192
      BasicConv2d-17           [-1, 96, 28, 28]               0
           Conv2d-18          [-1, 128, 28, 28]         110,592
      BatchNorm2d-19          [-1, 128, 28, 28]             256
      BasicConv2d-20          [-1, 128, 28, 28]               0
           Conv2d-21           [-1, 16, 28, 28]           3,072
      BatchNorm2d-22           [-1, 16, 28, 28]              32
      BasicConv2d-23           [-1, 16, 28, 28]               0
           Conv2d-24           [-1, 32, 28, 28]           4,608
      BatchNorm2d-25           [-1, 32, 28, 28]              64
      BasicConv2d-26           [-1, 32, 28, 28]               0
        MaxPool2d-27          [-1, 192, 28, 28]               0
           Conv2d-28           [-1, 32, 28, 28]           6,144
      BatchNorm2d-29           [-1, 32, 28, 28]              64
      BasicConv2d-30           [-1, 32, 28, 28]               0
        Inception-31          [-1, 256, 28, 28]               0
           Conv2d-32          [-1, 128, 28, 28]          32,768
      BatchNorm2d-33          [-1, 128, 28, 28]             256
      BasicConv2d-34          [-1, 128, 28, 28]               0
           Conv2d-35          [-1, 128, 28, 28]          32,768
      BatchNorm2d-36          [-1, 128, 28, 28]             256
      BasicConv2d-37          [-1, 128, 28, 28]               0
           Conv2d-38          [-1, 192, 28, 28]         221,184
      BatchNorm2d-39          [-1, 192, 28, 28]             384
      BasicConv2d-40          [-1, 192, 28, 28]               0
           Conv2d-41           [-1, 32, 28, 28]           8,192
      BatchNorm2d-42           [-1, 32, 28, 28]              64
      BasicConv2d-43           [-1, 32, 28, 28]               0
           Conv2d-44           [-1, 96, 28, 28]          27,648
      BatchNorm2d-45           [-1, 96, 28, 28]             192
      BasicConv2d-46           [-1, 96, 28, 28]               0
        MaxPool2d-47          [-1, 256, 28, 28]               0
           Conv2d-48           [-1, 64, 28, 28]          16,384
      BatchNorm2d-49           [-1, 64, 28, 28]             128
      BasicConv2d-50           [-1, 64, 28, 28]               0
        Inception-51          [-1, 480, 28, 28]               0
        MaxPool2d-52          [-1, 480, 14, 14]               0
           Conv2d-53          [-1, 192, 14, 14]          92,160
      BatchNorm2d-54          [-1, 192, 14, 14]             384
      BasicConv2d-55          [-1, 192, 14, 14]               0
           Conv2d-56           [-1, 96, 14, 14]          46,080
      BatchNorm2d-57           [-1, 96, 14, 14]             192
      BasicConv2d-58           [-1, 96, 14, 14]               0
           Conv2d-59          [-1, 208, 14, 14]         179,712
      BatchNorm2d-60          [-1, 208, 14, 14]             416
      BasicConv2d-61          [-1, 208, 14, 14]               0
           Conv2d-62           [-1, 16, 14, 14]           7,680
      BatchNorm2d-63           [-1, 16, 14, 14]              32
      BasicConv2d-64           [-1, 16, 14, 14]               0
           Conv2d-65           [-1, 48, 14, 14]           6,912
      BatchNorm2d-66           [-1, 48, 14, 14]              96
      BasicConv2d-67           [-1, 48, 14, 14]               0
        MaxPool2d-68          [-1, 480, 14, 14]               0
           Conv2d-69           [-1, 64, 14, 14]          30,720
      BatchNorm2d-70           [-1, 64, 14, 14]             128
      BasicConv2d-71           [-1, 64, 14, 14]               0
        Inception-72          [-1, 512, 14, 14]               0
           Conv2d-73          [-1, 160, 14, 14]          81,920
      BatchNorm2d-74          [-1, 160, 14, 14]             320
      BasicConv2d-75          [-1, 160, 14, 14]               0
           Conv2d-76          [-1, 112, 14, 14]          57,344
      BatchNorm2d-77          [-1, 112, 14, 14]             224
      BasicConv2d-78          [-1, 112, 14, 14]               0
           Conv2d-79          [-1, 224, 14, 14]         225,792
      BatchNorm2d-80          [-1, 224, 14, 14]             448
      BasicConv2d-81          [-1, 224, 14, 14]               0
           Conv2d-82           [-1, 24, 14, 14]          12,288
      BatchNorm2d-83           [-1, 24, 14, 14]              48
      BasicConv2d-84           [-1, 24, 14, 14]               0
           Conv2d-85           [-1, 64, 14, 14]          13,824
      BatchNorm2d-86           [-1, 64, 14, 14]             128
      BasicConv2d-87           [-1, 64, 14, 14]               0
        MaxPool2d-88          [-1, 512, 14, 14]               0
           Conv2d-89           [-1, 64, 14, 14]          32,768
      BatchNorm2d-90           [-1, 64, 14, 14]             128
      BasicConv2d-91           [-1, 64, 14, 14]               0
        Inception-92          [-1, 512, 14, 14]               0
           Conv2d-93          [-1, 128, 14, 14]          65,536
      BatchNorm2d-94          [-1, 128, 14, 14]             256
      BasicConv2d-95          [-1, 128, 14, 14]               0
           Conv2d-96          [-1, 128, 14, 14]          65,536
      BatchNorm2d-97          [-1, 128, 14, 14]             256
      BasicConv2d-98          [-1, 128, 14, 14]               0
           Conv2d-99          [-1, 256, 14, 14]         294,912
     BatchNorm2d-100          [-1, 256, 14, 14]             512
     BasicConv2d-101          [-1, 256, 14, 14]               0
          Conv2d-102           [-1, 24, 14, 14]          12,288
     BatchNorm2d-103           [-1, 24, 14, 14]              48
     BasicConv2d-104           [-1, 24, 14, 14]               0
          Conv2d-105           [-1, 64, 14, 14]          13,824
     BatchNorm2d-106           [-1, 64, 14, 14]             128
     BasicConv2d-107           [-1, 64, 14, 14]               0
       MaxPool2d-108          [-1, 512, 14, 14]               0
          Conv2d-109           [-1, 64, 14, 14]          32,768
     BatchNorm2d-110           [-1, 64, 14, 14]             128
     BasicConv2d-111           [-1, 64, 14, 14]               0
       Inception-112          [-1, 512, 14, 14]               0
          Conv2d-113          [-1, 112, 14, 14]          57,344
     BatchNorm2d-114          [-1, 112, 14, 14]             224
     BasicConv2d-115          [-1, 112, 14, 14]               0
          Conv2d-116          [-1, 144, 14, 14]          73,728
     BatchNorm2d-117          [-1, 144, 14, 14]             288
     BasicConv2d-118          [-1, 144, 14, 14]               0
          Conv2d-119          [-1, 288, 14, 14]         373,248
     BatchNorm2d-120          [-1, 288, 14, 14]             576
     BasicConv2d-121          [-1, 288, 14, 14]               0
          Conv2d-122           [-1, 32, 14, 14]          16,384
     BatchNorm2d-123           [-1, 32, 14, 14]              64
     BasicConv2d-124           [-1, 32, 14, 14]               0
          Conv2d-125           [-1, 64, 14, 14]          18,432
     BatchNorm2d-126           [-1, 64, 14, 14]             128
     BasicConv2d-127           [-1, 64, 14, 14]               0
       MaxPool2d-128          [-1, 512, 14, 14]               0
          Conv2d-129           [-1, 64, 14, 14]          32,768
     BatchNorm2d-130           [-1, 64, 14, 14]             128
     BasicConv2d-131           [-1, 64, 14, 14]               0
       Inception-132          [-1, 528, 14, 14]               0
          Conv2d-133          [-1, 256, 14, 14]         135,168
     BatchNorm2d-134          [-1, 256, 14, 14]             512
     BasicConv2d-135          [-1, 256, 14, 14]               0
          Conv2d-136          [-1, 160, 14, 14]          84,480
     BatchNorm2d-137          [-1, 160, 14, 14]             320
     BasicConv2d-138          [-1, 160, 14, 14]               0
          Conv2d-139          [-1, 320, 14, 14]         460,800
     BatchNorm2d-140          [-1, 320, 14, 14]             640
     BasicConv2d-141          [-1, 320, 14, 14]               0
          Conv2d-142           [-1, 32, 14, 14]          16,896
     BatchNorm2d-143           [-1, 32, 14, 14]              64
     BasicConv2d-144           [-1, 32, 14, 14]               0
          Conv2d-145          [-1, 128, 14, 14]          36,864
     BatchNorm2d-146          [-1, 128, 14, 14]             256
     BasicConv2d-147          [-1, 128, 14, 14]               0
       MaxPool2d-148          [-1, 528, 14, 14]               0
          Conv2d-149          [-1, 128, 14, 14]          67,584
     BatchNorm2d-150          [-1, 128, 14, 14]             256
     BasicConv2d-151          [-1, 128, 14, 14]               0
       Inception-152          [-1, 832, 14, 14]               0
       MaxPool2d-153            [-1, 832, 7, 7]               0
          Conv2d-154            [-1, 256, 7, 7]         212,992
     BatchNorm2d-155            [-1, 256, 7, 7]             512
     BasicConv2d-156            [-1, 256, 7, 7]               0
          Conv2d-157            [-1, 160, 7, 7]         133,120
     BatchNorm2d-158            [-1, 160, 7, 7]             320
     BasicConv2d-159            [-1, 160, 7, 7]               0
          Conv2d-160            [-1, 320, 7, 7]         460,800
     BatchNorm2d-161            [-1, 320, 7, 7]             640
     BasicConv2d-162            [-1, 320, 7, 7]               0
          Conv2d-163             [-1, 32, 7, 7]          26,624
     BatchNorm2d-164             [-1, 32, 7, 7]              64
     BasicConv2d-165             [-1, 32, 7, 7]               0
          Conv2d-166            [-1, 128, 7, 7]          36,864
     BatchNorm2d-167            [-1, 128, 7, 7]             256
     BasicConv2d-168            [-1, 128, 7, 7]               0
       MaxPool2d-169            [-1, 832, 7, 7]               0
          Conv2d-170            [-1, 128, 7, 7]         106,496
     BatchNorm2d-171            [-1, 128, 7, 7]             256
     BasicConv2d-172            [-1, 128, 7, 7]               0
       Inception-173            [-1, 832, 7, 7]               0
          Conv2d-174            [-1, 384, 7, 7]         319,488
     BatchNorm2d-175            [-1, 384, 7, 7]             768
     BasicConv2d-176            [-1, 384, 7, 7]               0
          Conv2d-177            [-1, 192, 7, 7]         159,744
     BatchNorm2d-178            [-1, 192, 7, 7]             384
     BasicConv2d-179            [-1, 192, 7, 7]               0
          Conv2d-180            [-1, 384, 7, 7]         663,552
     BatchNorm2d-181            [-1, 384, 7, 7]             768
     BasicConv2d-182            [-1, 384, 7, 7]               0
          Conv2d-183             [-1, 48, 7, 7]          39,936
     BatchNorm2d-184             [-1, 48, 7, 7]              96
     BasicConv2d-185             [-1, 48, 7, 7]               0
          Conv2d-186            [-1, 128, 7, 7]          55,296
     BatchNorm2d-187            [-1, 128, 7, 7]             256
     BasicConv2d-188            [-1, 128, 7, 7]               0
       MaxPool2d-189            [-1, 832, 7, 7]               0
          Conv2d-190            [-1, 128, 7, 7]         106,496
     BatchNorm2d-191            [-1, 128, 7, 7]             256
     BasicConv2d-192            [-1, 128, 7, 7]               0
       Inception-193           [-1, 1024, 7, 7]               0
AdaptiveAvgPool2d-194           [-1, 1024, 1, 1]               0
         Dropout-195                 [-1, 1024]               0
          Linear-196                  [-1, 512]         524,800
            ReLU-197                  [-1, 512]               0
         Dropout-198                  [-1, 512]               0
          Linear-199                  [-1, 200]         102,600
       GoogLeNet-200                  [-1, 200]               0
================================================================
Total params: 6,227,304
Trainable params: 627,400
Non-trainable params: 5,599,904
----------------------------------------------------------------
Input size (MB): 0.57
Forward/backward pass size (MB): 94.11
Params size (MB): 23.76
Estimated Total Size (MB): 118.44
----------------------------------------------------------------
Training Batch [0/188]    Batch Size: 32    Batch Mean Loss: 5.36892    Batch Accuracy: 0.00%    Rolling Epoch Accuracy: 0.00%
…
